data.pth (torch, 5783 bytes, 6 tensors)

layer1.weight f4 [7, 76]
0	0x3ec98775	0.39361158
1	0x3b265e67	0.0025385858
2	0xbe845292	-0.25844246
3	0xbe885eb9	-0.26634768
4	0xbded9f57	-0.11602657
5	0xbdbe8e26	-0.093044564
6	0xbd7cdaf5	-0.06173225
7	0x3c02f45a	0.007992828
8	0xbeb45eee	-0.35228676
9	0x3e92deba	0.28685552
10	0xbe7ec65d	-0.24880357
11	0x3f11a0ce	0.56885993
12	0x3f882523	1.0636333
13	0xbe57d432	-0.2107704
14	0xbedbf7ad	-0.429624
15	0xbdff4555	-0.12464396
16	0xbe0bcba4	-0.13651901
17	0xbd9fa53c	-0.07795188
18	0xbec63076	-0.38708848
19	0xbe21823d	-0.15772338
20	0x3f1e00b5	0.6171983
21	0xbf045c99	-0.5170379
22	0xbdcbc05d	-0.099488
23	0xbcc8172c	-0.024425112
24	0x3f336111	0.70069987
25	0xbef1f2c0	-0.47255516
26	0x3d411f27	0.04714885
27	0xbe145b4e	-0.14487955
28	0x3f091234	0.535434
29	0x3f6dd6e2	0.9290601
30	0x3c116958	0.008875214
31	0xbdc91617	-0.098186664
32	0xbf13813a	-0.5761906
33	0x3f7bb257	0.98319
34	0xbf12bf54	-0.57323194
35	0xbf16147d	-0.5862501
36	0xbe49f9ae	-0.19724151
37	0xbe354edd	-0.17705865
38	0x3d0e01c2	0.034669645
39	0xbed3dec8	-0.41380906
40	0x3ed31116	0.41223973
41	0xbdd6c56c	-0.10486874
42	0xbeccca42	-0.3999806
43	0xbde61ec4	-0.11236337
44	0xbe7bc231	-0.24585797
45	0x3f22177d	0.6331709
46	0xbe77a8db	-0.24185507
47	0x3f182796	0.59435403
48	0xbeb48eaa	-0.35265094
49	0xbd8d39db	-0.06895801
50	0xbea5da5d	-0.3239316
51	0xbdb81623	-0.08988597
52	0xbdb2ecdb	-0.08736583
53	0x3ee35425	0.44400135
54	0x3f853305	1.0406195
55	0x3c577ff4	0.013153065
56	0xbdb57fb0	-0.08862245
57	0xbe349fcf	-0.17639087
58	0x3f275018	0.6535659
59	0xbe6e8aea	-0.23295179
60	0x3f1f4ef2	0.62229836
61	0xbe64893c	-0.22317976
62	0x3c5c5d48	0.013449974
63	0xbe83787c	-0.2567786
64	0xbe126a90	-0.14298463
65	0x3fc2cbcb	1.5218443
66	0x3ec5fcb7	0.3866937
67	0xbe88244c	-0.26590192
68	0xbe0e9b17	-0.1392635
69	0x3e92c874	0.2866856
70	0xbf0290e3	-0.5100233
71	0xbdadb25c	-0.08481285
72	0xbf17f6f2	-0.59361184
73	0xbd819a68	-0.06328279
74	0x3eb3d2b1	0.35121682
75	0xbe098f36	-0.13433537
76	0x3e2a4f68	0.16631854
77	0x3efd01a9	0.4941533
78	0x3e0b33af	0.13593934
79	0xbdd27ec8	-0.10278088
80	0x3e882204	0.26588452
81	0xbd40329a	-0.046923257
82	0xbe4c73d5	-0.19966061
83	0x3ef987d0	0.4873643
84	0x3e6fe3ef	0.23426794
85	0x3f0fbace	0.56144416
86	0x3f5f526b	0.87235135
87	0xbed83d78	-0.42234397
88	0x3ee1dc98	0.44113612
89	0xbce38553	-0.027773535
90	0x3e28bc24	0.1647802
91	0x3d56bb10	0.05242449
92	0xbe273c82	-0.16331676
93	0x3f780903	0.9688875
94	0x3c921b8c	0.017835401
95	0xbe18d5d7	-0.14925323
96	0xbee48ed2	-0.44640213
97	0x3e3f8df0	0.18706489
98	0xbe80aed2	-0.25133377
99	0xbd35fc9e	-0.044430368
100	0xbeee583a	-0.46551687
101	0x3edc3237	0.4300706
102	0x3f879720	1.0592995
103	0x3e9d8941	0.3076878
104	0xbe2c473c	-0.16824049
105	0x3ec6bbc7	0.38815138
106	0xbe857553	-0.26066074
107	0xbe0d0137	-0.13769995
108	0xbceaf66a	-0.028681953
109	0xbf1b967f	-0.60776514
110	0xbc518b35	-0.012789537
111	0xbce8f00b	-0.028434774
112	0x3e5fa092	0.21838596
113	0xbea67ce1	-0.3251715
114	0x3f0f752f	0.5603818
115	0xbb15f7be	-0.0022883262
116	0xbd8f748b	-0.07004651
117	0xbcf7350e	-0.030176666
118	0x3ec021b0	0.37525702
119	0xbcd9edce	-0.026602652
120	0x3ebb7a2c	0.36616647
121	0xba2dfdc6	-0.00066372415
122	0x3e6ecfe0	0.23321486
123	0xbeac85cc	-0.3369583
124	0x3e901333	0.28139648
125	0xbe3af499	-0.18257369
126	0x3ed8f8d8	0.42377353
127	0xbedd5ddc	-0.43235672
128	0xbda6c61d	-0.08143256
129	0xbdcb5920	-0.099291086
130	0xbef12ef6	-0.4710614
131	0xbd209190	-0.03920132
132	0xbe889949	-0.26679447
133	0x3d9557d4	0.072921425
134	0xbe00cb80	-0.12577629
135	0xbe172614	-0.1476062
136	0xbeeff751	-0.46868375
137	0x3f613a9a	0.87980044
138	0x3ea35c72	0.31906468
139	0xbdcb652d	-0.09931407
140	0x3eabdde3	0.33567724
141	0xbef22e37	-0.47300884
142	0x3e4847c9	0.19558634
143	0x3d232c4b	0.039837163
144	0x3cb80011	0.02246097
145	0x3f385717	0.7200789
146	0xbec91488	-0.39273477
147	0xbe52e2ae	-0.20594284
148	0xbf045b26	-0.5170158
149	0x3db92a2c	0.09041247
150	0x3dc2d809	0.09513862
151	0xbeb8608c	-0.3601116
152	0x3dbd1e35	0.09234277
153	0xbe844c6d	-0.25839558
154	0xbd950c86	-0.07277779
155	0x3eafab65	0.3431045
156	0xbe889bbc	-0.26681316
157	0x3e13b2ac	0.14423627
158	0x3ea0b64c	0.3138908
159	0x3eb350d0	0.35022593
160	0xbe84b31a	-0.25917894
161	0x3e9028b2	0.28156048
162	0x3f09c9ca	0.5382353
163	0xbecfe90c	-0.40607488
164	0x3f4bd3a9	0.7961984
165	0x3ea9abb3	0.3313881
166	0x3e037988	0.12839329
167	0x3e33b112	0.17548016
168	0x3e457555	0.1928304
169	0x3ee90859	0.4551418
170	0x3dd4e874	0.103958994
171	0x3e39f37d	0.1815929
172	0xbed02f7b	-0.40661225
173	0x3ed1b547	0.40958616
174	0x3eab2784	0.33428586
175	0x3d011ea5	0.031523366
176	0xbf18e1e0	-0.5971966
177	0xbee45230	-0.44593954
178	0x3f06e04e	0.5268601
179	0xbd85cdca	-0.06533392
180	0x3e44d1a7	0.19220601
181	0x3f6e329b	0.9304597
182	0x3e9f52db	0.311179
183	0x3e9d8f1d	0.3077325
184	0x3ef08167	0.46973726
185	0xbcde5264	-0.027138896
186	0x3ed2c150	0.4116311
187	0x3ed47830	0.41497946
188	0x3e702510	0.23451638
189	0x3f11ab8c	0.56902385
190	0x3d8dea68	0.06929475
191	0x3ef4afd0	0.47790384
192	0xbddb9958	-0.107226074
193	0x3e691629	0.2276236
194	0xbed384f3	-0.4131237
195	0x3e05b0a0	0.13055658
196	0xbe9e22ea	-0.30886012
197	0x3e05213f	0.13000964
198	0xbe31f65a	-0.17379132
199	0xbdb5b7c0	-0.08872938
200	0xbe565908	-0.209324
201	0x3e51452e	0.20436546
202	0xbcd5ca43	-0.026097422
203	0x3f0b4509	0.54402214
204	0xbbc2d258	-0.005945485
205	0xbd1668aa	-0.03672091
206	0xbe54246a	-0.20717016
207	0x3e1beaa8	0.15226233
208	0x3e5d7993	0.21628408
209	0x3e2ea61e	0.17055556
210	0x3e050975	0.12991889
211	0x3e81c149	0.25342777
212	0xbecfee5d	-0.40611544
213	0x3efd41cb	0.4946426
214	0xbe5ca01a	-0.21545449
215	0x3ea28b0d	0.31746712
216	0x3e8b7b0b	0.27242312
217	0xbe337aa8	-0.17527258
218	0x3d15ae59	0.036543224
219	0x3ea3e975	0.3201405
220	0x3db86ffc	0.09005734
221	0xbe8856c6	-0.26628703
222	0x3f12fd05	0.5741733
223	0x3dcea929	0.100908585
224	0x3eb73ffb	0.35791
225	0x3e31c7bc	0.17361349
226	0x3e626ca2	0.22111753
227	0x3eeafd66	0.45896453
228	0x3e040314	0.12891799
229	0x3f08aa10	0.53384495
230	0x3e8b498e	0.27204555
231	0xbda4b9c0	-0.080432415
232	0x3e993d2c	0.29929483
233	0xbd72481e	-0.059150808
234	0xbe5a11cb	-0.2129585
235	0x3e8b5213	0.27211055
236	0x3eb4b9a7	0.35297891
237	0x3e8f480f	0.27984664
238	0x3f66870a	0.90049803
239	0x3f2a0126	0.66408
240	0xbf68f435	-0.9099763
241	0xbd34c2a9	-0.044130955
242	0x3ec1d15d	0.37855044
243	0xbc0aa609	-0.008462437
244	0xbe340ba9	-0.17582573
245	0x3f749e54	0.9555409
246	0x3e502162	0.20325235
247	0xbe3a96c0	-0.18221569
248	0x3f3020ae	0.68799865
249	0x3d5644f0	0.052311838
250	0xbe8d5779	-0.276058
251	0x3d1a8028	0.037719876
252	0x3f5849ea	0.84487784
253	0x3ef0afab	0.47009024
254	0x3f7e2b45	0.99284774
255	0x3e3dd702	0.1853905

layer1.bias f4 [7]
0	0x3f879e4a	1.0595181
1	0x3ef074af	0.46964023
2	0x3ed532c5	0.41640297
3	0x3f7714de	0.96516216
4	0x3ebe922f	0.37220904
5	0x3f2c40fd	0.67286664
6	0x3f298426	0.6621727

layer2.weight f4 [7, 7]
0	0xbf462bcf	-0.77410597
1	0x3fc5f69c	1.5465884
2	0x3f0fc2ed	0.5615681
3	0x3f8373b3	1.0269684
4	0x3eaf1060	0.3419218
5	0x3f38aac7	0.72135586
6	0xbf3ce3e3	-0.7378523
7	0x3e318c3c	0.17338651
8	0x3f8b2427	1.0870408
9	0xbe3a352b	-0.18184344
10	0x3fc7a442	1.5597003
11	0x3fb408d0	1.4065189
12	0xbf7c2059	-0.9848686
13	0x3fb6c711	1.42795
14	0x3e93ddad	0.28880063
15	0xbe81f1fe	-0.25379938
16	0x3fa9a808	1.3254404
17	0xbf537fbc	-0.8261678
18	0xbe070b8a	-0.13187996
19	0x3f74c321	0.95610243
20	0xbe0d8b9f	-0.13822792
21	0x3f3b097a	0.73061335
22	0xbf3d30c6	-0.7390255
23	0xbfe61810	-1.7976093
24	0x3f9389a8	1.1526384
25	0xbfa4431a	-1.2832978
26	0x3fdbdf01	1.717743
27	0xbd4bdf7e	-0.049773686
28	0x3fe83205	1.8140265
29	0x3e5cc2e3	0.21558718
30	0xbe198f34	-0.14996034
31	0xbf08e4e8	-0.53474283
32	0x3f984dc7	1.1898736
33	0xbd89278c	-0.06696996
34	0x3f9bf635	1.2184511
35	0xbdfc3563	-0.1231487
36	0xbea96f5d	-0.33092776
37	0x3e80ee83	0.2518197
38	0x3e80911f	0.2511072
39	0xbe7a85b5	-0.24465068
40	0xbec6fb91	-0.38863805
41	0xbda896d1	-0.08231891
42	0x3b74f971	0.0037380124
43	0x3f5b6d5e	0.85713756
44	0xbf862ca1	-1.048237
45	0x3fc71daf	1.5555934
46	0xbf186e36	-0.5954317
47	0xbef93ed3	-0.48680744
48	0x3f79036d	0.9727085

layer2.bias f4 [7]
0	0x3e342747	0.17593108
1	0x3e98b415	0.29824892
2	0x3f0ad7fb	0.5423581
3	0x3f392b11	0.7233134
4	0x3f20d2a1	0.62821394
5	0xbebbd2af	-0.36684176
6	0x3e9a3230	0.30116415

layer3.weight f4 [9, 7]
0	0x3f263389	0.64922386
1	0x3f523e19	0.82126004
2	0xbfadaf55	-1.3569132
3	0xbf859727	-1.0436753
4	0x3e60b662	0.21944574
5	0x3d2e2d38	0.042523593
6	0x3f2460d0	0.64210224
7	0x3f7d9087	0.99048656
8	0x3e8e4725	0.27788654
9	0xbf5f11c3	-0.8713648
10	0x3f2d06fb	0.67588776
11	0xbfb08b0c	-1.3792434
12	0xbe9c8c92	-0.30575997
13	0x3eafed2b	0.34360632
14	0xbfd6da20	-1.6785316
15	0x3f3e378c	0.7430351
16	0xbbec1589	-0.0072047156
17	0xbfbbb2eb	-1.4663976
18	0x3f8629f1	1.048155
19	0xbe1ff51b	-0.15620844
20	0xbee83212	-0.453507
21	0x3d704872	0.05866284
22	0xbe8ffd2a	-0.28122836
23	0xbe3d621a	-0.18494454
24	0x3e294c4e	0.16533014
25	0xbd5f8732	-0.05457229
26	0xbe6e4d43	-0.2327166
27	0xbe49fe81	-0.19725992
28	0xbcf23aa1	-0.029568972
29	0xbe031bea	-0.12803617
30	0xbe32b501	-0.1745186
31	0xbeb5a70c	-0.3547901
32	0x3e0b1f27	0.13586102
33	0xbd9dc44c	-0.07703456
34	0xbe4ed9c5	-0.2020026
35	0x3e25670c	0.1615259
36	0x3c48d3d0	0.012257531
37	0xbe85b1e2	-0.26112276
38	0xbdcbdeee	-0.0995463
39	0xbeb4e3b0	-0.35329962
40	0xbebd2e51	-0.369494
41	0xbeb24ecc	-0.34825742
42	0x3d1dcd30	0.03852576
43	0xbe843406	-0.2582094
44	0xbe84dd64	-0.25950158
45	0xbe936488	-0.28787637
46	0x3e262e7a	0.16228667
47	0x3dd77cdc	0.10521862
48	0xbd04cc88	-0.03242162
49	0xbfdec1a8	-1.7402849
50	0x3f0efddb	0.558561
51	0xc002e9d6	-2.0455222
52	0x3f818bf2	1.0120833
53	0x3e50ebfb	0.2040252
54	0xbdf801d0	-0.12109721
55	0x3f4fa05d	0.8110407
56	0xbf4f15a0	-0.8089237
57	0xbf57f07e	-0.84351337
58	0x3e6066b6	0.21914181
59	0x3f94b8ed	1.1618935
60	0x3f4fc2f1	0.8115683
61	0x3e14e044	0.14538676
62	0xbf5e7a5d	-0.8690546

layer3.bias f4 [9]
0	0xbe2f34f6	-0.17110047
1	0x3e8436de	0.2582311
2	0x3ed0c308	0.40773797
3	0xbe4a7ad5	-0.19773419
4	0xbef6bfc5	-0.48193184
5	0xbdc2b37b	-0.095068894
6	0xbe5e7e3b	-0.2172784
7	0x3ec4405d	0.38330355
8	0x3e8c2ddb	0.27378735
